…
2022-11-24 23:56:42.973949	folder path: saved/riemannian-diffusion/hyperbolic/5gaussians-64-0.001-10000-2.0-512-3-0
2022-11-24 23:56:42.974379	Namespace(dataset='5gaussians', dataroot='data', saveroot='saved', expname='hyperbolic', print_every=100, sample_every=500, checkpoint_every=500, reload=False, evaluate_every=5000, evaluation_K=10, seed=12345, num_steps=100, evaluation_num_steps=100, T0=2.0, emb_size=512, hidden_layers=3, imp=0, drift_coeff=1.0, div=None, batch_size=64, val_batch_size=256, test_batch_size=256, lr=0.001, num_iterations=10000, wandb=True)
2022-11-24 23:56:58.939827	cuda unavailable
2022-11-24 23:56:58.948998	ConcatMLP(
  (net): Sequential(
    (0): ActNorm()
    (1): Linear(in_features=4, out_features=512, bias=True)
    (2): Swish()
    (3): Linear(in_features=512, out_features=512, bias=True)
    (4): Swish()
    (5): Linear(in_features=512, out_features=512, bias=True)
    (6): Swish()
    (7): Linear(in_features=512, out_features=3, bias=True)
  )
)
2022-11-24 23:59:56.173025	folder path: saved/riemannian-diffusion/hyperbolic/5gaussians-64-0.001-10000-2.0-512-3-0
2022-11-24 23:59:56.173163	Namespace(dataset='5gaussians', dataroot='data', saveroot='saved', expname='hyperbolic', print_every=100, sample_every=500, checkpoint_every=500, reload=False, evaluate_every=5000, evaluation_K=10, seed=12345, num_steps=100, evaluation_num_steps=100, T0=2.0, emb_size=512, hidden_layers=3, imp=0, drift_coeff=1.0, div=None, batch_size=64, val_batch_size=256, test_batch_size=256, lr=0.001, num_iterations=10000, wandb=True)
2022-11-25 00:00:11.998316	cuda unavailable
2022-11-25 00:00:12.005468	ConcatMLP(
  (net): Sequential(
    (0): ActNorm()
    (1): Linear(in_features=4, out_features=512, bias=True)
    (2): Swish()
    (3): Linear(in_features=512, out_features=512, bias=True)
    (4): Swish()
    (5): Linear(in_features=512, out_features=512, bias=True)
    (6): Swish()
    (7): Linear(in_features=512, out_features=3, bias=True)
  )
)
2022-11-25 00:00:15.975026	Iteration 1 	loss nan
2022-11-25 00:00:24.768830	Iteration 100 	loss nan
2022-11-25 00:00:33.913573	Iteration 200 	loss nan
2022-11-25 00:00:43.173418	Iteration 300 	loss nan
2022-11-25 00:00:52.360032	Iteration 400 	loss nan
2022-11-25 00:01:01.581061	Iteration 500 	loss nan
2022-11-25 00:15:44.247457	folder path: saved/riemannian-diffusion/hyperbolic/5gaussians-64-0.001-10000-2.0-512-3-0
…
2022-11-25 00:20:54.769153	folder path: saved/riemannian-diffusion/hyperbolic/5gaussians-64-0.001-10000-2.0-512-3-0
2022-11-25 00:20:54.769612	Namespace(dataset='5gaussians', dataroot='data', saveroot='saved', expname='hyperbolic', print_every=100, sample_every=500, checkpoint_every=500, reload=False, evaluate_every=5000, evaluation_K=10, seed=12345, num_steps=100, evaluation_num_steps=100, T0=2.0, emb_size=512, hidden_layers=3, imp=0, drift_coeff=1.0, div=None, batch_size=64, val_batch_size=256, test_batch_size=256, lr=0.001, num_iterations=10000, wandb=True)
2022-11-25 00:21:14.533101	cuda unavailable
2022-11-25 00:21:14.540756	ConcatMLP(
  (net): Sequential(
    (0): ActNorm()
    (1): Linear(in_features=4, out_features=512, bias=True)
    (2): Swish()
    (3): Linear(in_features=512, out_features=512, bias=True)
    (4): Swish()
    (5): Linear(in_features=512, out_features=512, bias=True)
    (6): Swish()
    (7): Linear(in_features=512, out_features=3, bias=True)
  )
)
2022-11-25 00:21:19.286887	Iteration 1 	loss nan
2022-11-25 00:21:30.549085	Iteration 100 	loss nan
2022-11-25 00:23:54.871380	folder path: saved/riemannian-diffusion/hyperbolic/5gaussians-64-0.001-10000-2.0-512-3-0
2022-11-25 00:23:54.871727	Namespace(dataset='5gaussians', dataroot='data', saveroot='saved', expname='hyperbolic', print_every=100, sample_every=500, checkpoint_every=500, reload=False, evaluate_every=5000, evaluation_K=10, seed=12345, num_steps=100, evaluation_num_steps=100, T0=2.0, emb_size=512, hidden_layers=3, imp=0, drift_coeff=1.0, div=None, batch_size=64, val_batch_size=256, test_batch_size=256, lr=0.001, num_iterations=10000, wandb=True)
2022-11-25 00:24:11.945559	cuda unavailable
2022-11-25 00:24:11.952787	ConcatMLP(
  (net): Sequential(
    (0): ActNorm()
    (1): Linear(in_features=4, out_features=512, bias=True)
    (2): Swish()
    (3): Linear(in_features=512, out_features=512, bias=True)
    (4): Swish()
    (5): Linear(in_features=512, out_features=512, bias=True)
    (6): Swish()
    (7): Linear(in_features=512, out_features=3, bias=True)
  )
)
2022-11-25 00:24:16.055079	Iteration 1 	loss nan
2022-11-25 00:24:28.923610	Iteration 100 	loss nan
2022-11-25 00:24:42.145417	Iteration 200 	loss nan
2022-11-25 00:26:08.245265	folder path: saved/riemannian-diffusion/hyperbolic/5gaussians-64-0.001-10000-2.0-512-3-0
2022-11-25 00:26:08.245387	Namespace(dataset='5gaussians', dataroot='data', saveroot='saved', expname='hyperbolic', print_every=100, sample_every=500, checkpoint_every=500, reload=False, evaluate_every=5000, evaluation_K=10, seed=12345, num_steps=100, evaluation_num_steps=100, T0=2.0, emb_size=512, hidden_layers=3, imp=0, drift_coeff=1.0, div=None, batch_size=64, val_batch_size=256, test_batch_size=256, lr=0.001, num_iterations=10000, wandb=True)
2022-11-25 00:26:09.048433	cuda unavailable
2022-11-25 00:26:09.056444	ConcatMLP(
  (net): Sequential(
    (0): ActNorm()
    (1): Linear(in_features=4, out_features=512, bias=True)
    (2): Swish()
    (3): Linear(in_features=512, out_features=512, bias=True)
    (4): Swish()
    (5): Linear(in_features=512, out_features=512, bias=True)
    (6): Swish()
    (7): Linear(in_features=512, out_features=3, bias=True)
  )
)
2022-11-25 00:26:43.918681	folder path: saved/riemannian-diffusion/hyperbolic/5gaussians-64-0.001-10000-2.0-512-3-0
2022-11-25 00:26:43.918880	Namespace(dataset='5gaussians', dataroot='data', saveroot='saved', expname='hyperbolic', print_every=100, sample_every=500, checkpoint_every=500, reload=False, evaluate_every=5000, evaluation_K=10, seed=12345, num_steps=100, evaluation_num_steps=100, T0=2.0, emb_size=512, hidden_layers=3, imp=0, drift_coeff=1.0, div=None, batch_size=64, val_batch_size=256, test_batch_size=256, lr=0.001, num_iterations=10000, wandb=True)
2022-11-25 00:26:44.706963	cuda unavailable
2022-11-25 00:26:44.714899	ConcatMLP(
  (net): Sequential(
    (0): ActNorm()
    (1): Linear(in_features=4, out_features=512, bias=True)
    (2): Swish()
    (3): Linear(in_features=512, out_features=512, bias=True)
    (4): Swish()
    (5): Linear(in_features=512, out_features=512, bias=True)
    (6): Swish()
    (7): Linear(in_features=512, out_features=3, bias=True)
  )
)
2022-11-25 00:27:15.187258	folder path: saved/riemannian-diffusion/hyperbolic/5gaussians-64-0.001-10000-2.0-512-3-0
2022-11-25 00:27:15.187448	Namespace(dataset='5gaussians', dataroot='data', saveroot='saved', expname='hyperbolic', print_every=100, sample_every=500, checkpoint_every=500, reload=False, evaluate_every=5000, evaluation_K=10, seed=12345, num_steps=100, evaluation_num_steps=100, T0=2.0, emb_size=512, hidden_layers=3, imp=0, drift_coeff=1.0, div=None, batch_size=64, val_batch_size=256, test_batch_size=256, lr=0.001, num_iterations=10000, wandb=True)
2022-11-25 00:27:16.038009	cuda unavailable
2022-11-25 00:27:16.046549	ConcatMLP(
  (net): Sequential(
    (0): ActNorm()
    (1): Linear(in_features=4, out_features=512, bias=True)
    (2): Swish()
    (3): Linear(in_features=512, out_features=512, bias=True)
    (4): Swish()
    (5): Linear(in_features=512, out_features=512, bias=True)
    (6): Swish()
    (7): Linear(in_features=512, out_features=3, bias=True)
  )
)
2022-11-25 00:27:27.186591	folder path: saved/riemannian-diffusion/hyperbolic/5gaussians-64-0.001-10000-2.0-512-3-0
2022-11-25 00:27:27.186788	Namespace(dataset='5gaussians', dataroot='data', saveroot='saved', expname='hyperbolic', print_every=100, sample_every=500, checkpoint_every=500, reload=False, evaluate_every=5000, evaluation_K=10, seed=12345, num_steps=100, evaluation_num_steps=100, T0=2.0, emb_size=512, hidden_layers=3, imp=0, drift_coeff=1.0, div=None, batch_size=64, val_batch_size=256, test_batch_size=256, lr=0.001, num_iterations=10000, wandb=False)
2022-11-25 00:27:27.187978	cuda unavailable
2022-11-25 00:27:27.195066	ConcatMLP(
  (net): Sequential(
    (0): ActNorm()
    (1): Linear(in_features=4, out_features=512, bias=True)
    (2): Swish()
    (3): Linear(in_features=512, out_features=512, bias=True)
    (4): Swish()
    (5): Linear(in_features=512, out_features=512, bias=True)
    (6): Swish()
    (7): Linear(in_features=512, out_features=3, bias=True)
  )
)
2022-11-25 00:27:27.271051	Iteration 1 	loss 22.203620449437963
2022-11-25 00:27:32.232336	Iteration 100 	loss 17.555798111727555
2022-11-25 00:27:37.169832	folder path: saved/riemannian-diffusion/hyperbolic/5gaussians-64-0.001-10000-2.0-512-3-0
2022-11-25 00:27:37.170021	Namespace(dataset='5gaussians', dataroot='data', saveroot='saved', expname='hyperbolic', print_every=100, sample_every=500, checkpoint_every=500, reload=False, evaluate_every=5000, evaluation_K=10, seed=12345, num_steps=100, evaluation_num_steps=100, T0=2.0, emb_size=512, hidden_layers=3, imp=0, drift_coeff=1.0, div=None, batch_size=64, val_batch_size=256, test_batch_size=256, lr=0.001, num_iterations=10000, wandb=False)
2022-11-25 00:27:37.170970	cuda unavailable
2022-11-25 00:27:37.178091	ConcatMLP(
  (net): Sequential(
    (0): ActNorm()
    (1): Linear(in_features=4, out_features=512, bias=True)
    (2): Swish()
    (3): Linear(in_features=512, out_features=512, bias=True)
    (4): Swish()
    (5): Linear(in_features=512, out_features=512, bias=True)
    (6): Swish()
    (7): Linear(in_features=512, out_features=3, bias=True)
  )
)
2022-11-25 00:27:37.251132	Iteration 1 	loss 22.203620449437963
2022-11-25 00:27:41.966377	Iteration 100 	loss 17.555798111727555
2022-11-25 00:27:46.730683	Iteration 200 	loss 19.652550344230388
2022-11-25 00:27:51.613170	Iteration 300 	loss 18.439413583438714
2022-11-25 00:27:58.372406	folder path: saved/riemannian-diffusion/hyperbolic/5gaussians-64-0.001-10000-2.0-512-3-0
…
2022-11-25 00:39:39.207078	Namespace(dataset='5gaussians', dataroot='data', saveroot='saved', expname='hyperbolic', print_every=100, sample_every=500, checkpoint_every=500, reload=False, evaluate_every=5000, evaluation_K=10, seed=12345, num_steps=100, evaluation_num_steps=100, T0=2.0, emb_size=512, hidden_layers=3, imp=0, drift_coeff=1.0, div=None, batch_size=64, val_batch_size=256, test_batch_size=256, lr=0.001, num_iterations=10000, wandb=True)
2022-11-25 00:39:41.303380	Iteration 700 	loss 415401.8655399567
2022-11-25 00:39:46.855215	Iteration 800 	loss 69.48497724773563
2022-11-25 00:39:52.294739	Iteration 900 	loss 25228.90818195373
2022-11-25 00:39:55.923857	cuda unavailable
2022-11-25 00:39:55.932076	ConcatMLP(
  (net): Sequential(
    (0): ActNorm()
    (1): Linear(in_features=4, out_features=512, bias=True)
    (2): Swish()
    (3): Linear(in_features=512, out_features=512, bias=True)
    (4): Swish()
    (5): Linear(in_features=512, out_features=512, bias=True)
    (6): Swish()
    (7): Linear(in_features=512, out_features=3, bias=True)
  )
)
2022-11-25 00:39:58.031073	Iteration 1000 	loss 55.71423145481833
2022-11-25 00:40:00.631887	Iteration 1 	loss nan
2022-11-25 00:40:15.469328	folder path: saved/riemannian-diffusion/hyperbolic/5gaussians-64-0.001-10000-2.0-512-3-0
2022-11-25 00:40:15.469527	Namespace(dataset='5gaussians', dataroot='data', saveroot='saved', expname='hyperbolic', print_every=100, sample_every=500, checkpoint_every=500, reload=False, evaluate_every=5000, evaluation_K=10, seed=12345, num_steps=100, evaluation_num_steps=100, T0=2.0, emb_size=512, hidden_layers=3, imp=0, drift_coeff=1.0, div=None, batch_size=64, val_batch_size=256, test_batch_size=256, lr=0.001, num_iterations=10000, wandb=True)
2022-11-25 00:40:34.931042	cuda unavailable
2022-11-25 00:40:34.940177	ConcatMLP(
  (net): Sequential(
    (0): ActNorm()
    (1): Linear(in_features=4, out_features=512, bias=True)
    (2): Swish()
    (3): Linear(in_features=512, out_features=512, bias=True)
    (4): Swish()
    (5): Linear(in_features=512, out_features=512, bias=True)
    (6): Swish()
    (7): Linear(in_features=512, out_features=3, bias=True)
  )
)
2022-11-25 00:40:39.789928	Iteration 1 	loss nan
2022-11-25 00:42:53.226840	folder path: saved/riemannian-diffusion/hyperbolic/5gaussians-64-0.001-10000-2.0-512-3-0
2022-11-25 00:42:53.227265	Namespace(dataset='5gaussians', dataroot='data', saveroot='saved', expname='hyperbolic', print_every=100, sample_every=500, checkpoint_every=500, reload=False, evaluate_every=5000, evaluation_K=10, seed=12345, num_steps=100, evaluation_num_steps=100, T0=2.0, emb_size=512, hidden_layers=3, imp=0, drift_coeff=1.0, div=None, batch_size=64, val_batch_size=256, test_batch_size=256, lr=0.001, num_iterations=10000, wandb=True)
2022-11-25 00:43:12.083018	cuda unavailable
2022-11-25 00:43:12.091600	ConcatMLP(
  (net): Sequential(
    (0): ActNorm()
    (1): Linear(in_features=4, out_features=512, bias=True)
    (2): Swish()
    (3): Linear(in_features=512, out_features=512, bias=True)
    (4): Swish()
    (5): Linear(in_features=512, out_features=512, bias=True)
    (6): Swish()
    (7): Linear(in_features=512, out_features=3, bias=True)
  )
)
2022-11-25 00:43:17.117539	Iteration 1 	loss nan
2022-11-25 00:43:40.312976	Iteration 100 	loss nan
2022-11-25 00:44:05.183861	Iteration 200 	loss nan
2022-11-25 00:44:29.995116	Iteration 300 	loss nan
2022-11-25 00:50:53.142959	Iteration 1100 	loss 21.71255382617906
2022-11-25 00:50:58.170803	Iteration 1200 	loss 25.078755670626872
2022-11-25 00:51:03.015495	Iteration 1300 	loss 116.04427232329871
…
2022-11-25 01:09:52.949377	folder path: saved/riemannian-diffusion/hyperbolic/5gaussians-64-0.001-10000-2.0-512-3-0
2022-11-25 01:09:52.949550	Namespace(dataset='5gaussians', dataroot='data', saveroot='saved', expname='hyperbolic', print_every=100, sample_every=500, checkpoint_every=500, reload=False, evaluate_every=5000, evaluation_K=10, seed=12345, num_steps=100, evaluation_num_steps=100, T0=2.0, emb_size=512, hidden_layers=3, imp=0, drift_coeff=1.0, div=None, batch_size=64, val_batch_size=256, test_batch_size=256, lr=0.001, num_iterations=10000, wandb=True)
2022-11-25 01:10:08.546099	cuda unavailable
2022-11-25 01:10:08.549185	ConcatMLP(
  (net): Sequential(
    (0): ActNorm()
    (1): Linear(in_features=4, out_features=512, bias=True)
    (2): Swish()
    (3): Linear(in_features=512, out_features=512, bias=True)
    (4): Swish()
    (5): Linear(in_features=512, out_features=512, bias=True)
    (6): Swish()
    (7): Linear(in_features=512, out_features=3, bias=True)
  )
)
2022-11-25 01:11:45.062275	folder path: saved/riemannian-diffusion/hyperbolic/5gaussians-64-0.001-10000-2.0-512-3-0
2022-11-25 01:11:45.062448	Namespace(dataset='5gaussians', dataroot='data', saveroot='saved', expname='hyperbolic', print_every=100, sample_every=500, checkpoint_every=500, reload=False, evaluate_every=5000, evaluation_K=10, seed=12345, num_steps=100, evaluation_num_steps=100, T0=2.0, emb_size=512, hidden_layers=3, imp=0, drift_coeff=1.0, div=None, batch_size=64, val_batch_size=256, test_batch_size=256, lr=0.001, num_iterations=10000, wandb=True)
2022-11-25 01:12:01.392381	cuda unavailable
2022-11-25 01:12:01.395322	ConcatMLP(
  (net): Sequential(
    (0): ActNorm()
    (1): Linear(in_features=4, out_features=512, bias=True)
    (2): Swish()
    (3): Linear(in_features=512, out_features=512, bias=True)
    (4): Swish()
    (5): Linear(in_features=512, out_features=512, bias=True)
    (6): Swish()
    (7): Linear(in_features=512, out_features=3, bias=True)
  )
)
2022-11-25 01:12:40.764565	folder path: saved/riemannian-diffusion/hyperbolic/5gaussians-64-0.001-10000-2.0-512-3-0
2022-11-25 01:12:40.764728	Namespace(dataset='5gaussians', dataroot='data', saveroot='saved', expname='hyperbolic', print_every=100, sample_every=500, checkpoint_every=500, reload=False, evaluate_every=5000, evaluation_K=10, seed=12345, num_steps=100, evaluation_num_steps=100, T0=2.0, emb_size=512, hidden_layers=3, imp=0, drift_coeff=1.0, div=None, batch_size=64, val_batch_size=256, test_batch_size=256, lr=0.001, num_iterations=10000, wandb=True)
2022-11-25 01:12:56.901402	cuda unavailable
2022-11-25 01:12:56.904509	ConcatMLP(
  (net): Sequential(
    (0): ActNorm()
    (1): Linear(in_features=4, out_features=512, bias=True)
    (2): Swish()
    (3): Linear(in_features=512, out_features=512, bias=True)
    (4): Swish()
    (5): Linear(in_features=512, out_features=512, bias=True)
    (6): Swish()
    (7): Linear(in_features=512, out_features=3, bias=True)
  )
)
2022-11-25 01:15:09.636392	folder path: saved/riemannian-diffusion/hyperbolic/5gaussians-64-0.001-10000-2.0-512-3-0
2022-11-25 01:15:09.636526	Namespace(dataset='5gaussians', dataroot='data', saveroot='saved', expname='hyperbolic', print_every=100, sample_every=500, checkpoint_every=500, reload=False, evaluate_every=5000, evaluation_K=10, seed=12345, num_steps=100, evaluation_num_steps=100, T0=2.0, emb_size=512, hidden_layers=3, imp=0, drift_coeff=1.0, div=None, batch_size=64, val_batch_size=256, test_batch_size=256, lr=0.001, num_iterations=10000, wandb=True)
2022-11-25 01:15:25.461155	cuda unavailable
2022-11-25 01:15:25.464356	ConcatMLP(
  (net): Sequential(
    (0): ActNorm()
    (1): Linear(in_features=4, out_features=512, bias=True)
    (2): Swish()
    (3): Linear(in_features=512, out_features=512, bias=True)
    (4): Swish()
    (5): Linear(in_features=512, out_features=512, bias=True)
    (6): Swish()
    (7): Linear(in_features=512, out_features=3, bias=True)
  )
)
2022-11-25 01:16:15.731121	folder path: saved/riemannian-diffusion/hyperbolic/5gaussians-64-0.001-10000-2.0-512-3-0
2022-11-25 01:16:15.731276	Namespace(dataset='5gaussians', dataroot='data', saveroot='saved', expname='hyperbolic', print_every=100, sample_every=500, checkpoint_every=500, reload=False, evaluate_every=5000, evaluation_K=10, seed=12345, num_steps=100, evaluation_num_steps=100, T0=2.0, emb_size=512, hidden_layers=3, imp=0, drift_coeff=1.0, div=None, batch_size=64, val_batch_size=256, test_batch_size=256, lr=0.001, num_iterations=10000, wandb=True)
2022-11-25 01:16:31.477694	cuda unavailable
2022-11-25 01:16:31.480664	ConcatMLP(
  (net): Sequential(
    (0): ActNorm()
    (1): Linear(in_features=4, out_features=512, bias=True)
    (2): Swish()
    (3): Linear(in_features=512, out_features=512, bias=True)
    (4): Swish()
    (5): Linear(in_features=512, out_features=512, bias=True)
    (6): Swish()
    (7): Linear(in_features=512, out_features=3, bias=True)
  )
)
2022-11-25 01:17:21.478515	folder path: saved/riemannian-diffusion/hyperbolic/5gaussians-64-0.001-10000-2.0-512-3-0
2022-11-25 01:17:21.478670	Namespace(dataset='5gaussians', dataroot='data', saveroot='saved', expname='hyperbolic', print_every=100, sample_every=500, checkpoint_every=500, reload=False, evaluate_every=5000, evaluation_K=10, seed=12345, num_steps=100, evaluation_num_steps=100, T0=2.0, emb_size=512, hidden_layers=3, imp=0, drift_coeff=1.0, div=None, batch_size=64, val_batch_size=256, test_batch_size=256, lr=0.001, num_iterations=10000, wandb=True)
2022-11-25 01:17:39.829669	cuda unavailable
2022-11-25 01:17:39.832922	ConcatMLP(
  (net): Sequential(
    (0): ActNorm()
    (1): Linear(in_features=4, out_features=512, bias=True)
    (2): Swish()
    (3): Linear(in_features=512, out_features=512, bias=True)
    (4): Swish()
    (5): Linear(in_features=512, out_features=512, bias=True)
    (6): Swish()
    (7): Linear(in_features=512, out_features=3, bias=True)
  )
)
2022-11-25 01:17:41.469891	Iteration 1 	loss nan
2022-11-25 01:17:54.464209	Iteration 100 	loss nan
2022-11-25 01:18:07.771756	Iteration 200 	loss nan
2022-11-25 01:18:21.226912	Iteration 300 	loss nan
2022-11-25 01:18:34.617628	Iteration 400 	loss nan
2022-11-25 01:18:47.953501	Iteration 500 	loss nan
2022-11-25 01:25:10.894093	folder path: saved/riemannian-diffusion/hyperbolic/5gaussians-64-0.001-10000-2.0-512-3-0
…
